ag-20250609_005753/models/NeuralNetFastAI/model-internals.pkl (torch, 276756 bytes, 15 tensors)

weight f4 [11]
00000000: dd54 0d3f 795e 0a3f ce14 2e3f 99da 013f
00000010: a4b7 2f3f fba9 ab3f 1e33 9a3f e5e1 903f
00000020: 8b1b 9b3f 6e0c 833f 4687 933f
0.55207616 0.54050404 0.68000495 0.5072418 0.6863959 1.3411249 1.204685 1.1318938
1.211778 1.0238168 1.1525657

bias f4 [11]
00000000: c350 ccbd 2673 723e 084e 0c3e de1a cc3e
00000010: bb78 853e 8a27 853e 3fc9 6b3e 3bd8 f43e
00000020: 5908 243f 21ff 8cbd 4e4d 0b3f
-0.099763416 0.23676738 0.13701642 0.39864248 0.26068673 0.26006728 0.23025988 0.4782122
0.6407524 -0.068845995 0.5441483

running_mean f4 [11]
00000000: 880b f2bb 762d 013c fb06 813b 6689 7abc
00000010: 8840 943b 9042 103b 164b 143c 443d f53b
00000020: 0bbf 04bd 7055 cfbc e3bc ceb9
-0.0073866285 0.007884374 0.0039375997 -0.015291547 0.0045242943 0.002201233 0.009051105 0.00748411
-0.032408755 -0.025309294 -0.00039432113

running_var f4 [11]
00000000: 542c 7a3f 1af8 803f 8df6 7f3f 3778 763f
00000010: a64f 7f3f 2318 7c3f b054 7d3f 778e 803f
00000020: aab5 653f 3f14 7a3f a2f3 793f
0.9772389 1.0075715 0.9998558 0.96277183 0.9973091 0.9847433 0.9895735 1.0043477
0.8973032 0.97687143 0.9763738

weight f4 [200, 11]
00000000: 75b1 00be ed12 013e 1843 cbbe 8528 c3bd
00000010: 5ce3 b8be 9a1d 2bbe 893d c73a 2db2 a73e
00000020: 5928 0ebf f92b 2b3e 8ce3 97be d2ba 253e
00000030: bc3b 8cbe a629 14be 8482 72be 69a1 ffbd
00000040: 266e 803e 9790 e03d adb2 4ebf bd94 2ebe
00000050: 586f 97bd 818f 443e 886e a8be df93 0f3f
00000060: 0e73 523e 32d3 b0bd 6bf7 573e f582 f4be
00000070: 8d17 d8bd 7339 07bd 2736 02be 6f7c 323c
00000080: 63cd 14bf 94c7 d53d f4d8 c4be a7db 94be
00000090: 48db 3abe 54a4 d33e a74d ea3e 48a2 233e
000000a0: b622 863e 295c 34be 8e16 aabb d28b eebe
000000b0: 3a45 db3d 1047 25bf e711 813e 819f 8b3e
000000c0: 2e8e 35be b492 513e 9728 243e 345c 773e
000000d0: 26a9 833d 93cc 963e 16c0 803e 7a93 ddbe
000000e0: 02d5 473d e0ad b4be f7e2 1cbf e1a0 833d
000000f0: 2dee 543e d0a9 653e 3781 abbe cc4e c33e
00000100: 5101 443e ccb1 adbc ed0d 653e d45a aabd
00000110: 238e 103f 2931 343e 8560 debe d4b2 ccbe
00000120: ae83 203e 35b6 d23c 0de7 753e f9f4 b53e
00000130: 343c 623d 3448 27bf cdc7 d8be 3c8c afbe
00000140: a1c2 85bf 0366 013f 7cfc f13d 448e 27be
00000150: 02eb ce3d 9fdb bbbd aaa3 e63c 8277 3dbe
00000160: 6511 ba3d 4552 2f3e 1469 e33e 0a80 a2bb
00000170: d2db d83e 4333 443e 0928 0bbf 0484 edbe
00000180: 11b2 96bd 1266 4fbd 7601 7cbe 0d95 e7bd
00000190: d290 ff3d 165d 563e 3f96 03bd cd51 ea3d
000001a0: 0a4d e5be b3b4 0a3e b2c9 25bf 8e5b 96be
000001b0: 9b15 383e 663f 8ebe 6bb8 5cbe e2a6 fe3e
000001c0: e417 7dbe b91b 073e cc44 3a3e f280 e8be
000001d0: 9999 23bf 9d27 e0bc 49b6 b83d 226f c53c
000001e0: 7539 d13d 149b 3cbd 8a37 babe 75f0 a93e
000001f0: db68 c5be 5fb3 37be d7c0 5e3d a805 05bf
00000200: ee9d bc3d adc7 e8be 8767 b13d e111 923e
00000210: 913c 7ebe 8d8b 043f 761d be3e 6d36 41bf
00000220: 8739 1dbe 10d4 87be bf72 cf3d 5f0b 863c
00000230: 0728 573e 531d 573e f0fb 893e d69f d6bc
00000240: e9dd f6bd fb7a 00be 69e3 23bb 8bad bf3d
00000250: 7724 e4be 3214 31bf ec1e 2bbe 03f1 bdbe
00000260: b5c6 8dbe ce74 293e 5dfb 843d 971e 3fbe
00000270: b4ef 6f3d d5d6 8dbe d32e 973d 0ca9 e1be
00000280: cd4c adbe 869f c7bd 5fa9 70be 4252 36bf
00000290: 223e 303d fc08 ca3b b34c 1ebf 0895 b3bb
000002a0: 850c 7ebe 1234 c2be 981f 6b3e fc57 91be
000002b0: 90e3 143e abc0 25bd abd1 1abf f8f1 2c3d
000002c0: 96a5 a5bd 6920 a2be 8dc2 4c3e a6ac 65be
000002d0: d365 b23e d582 0fbd 8743 c93e aa4d 2a3c
000002e0: f7b9 a83e 88bd 913e 5fb9 c0bd 0477 a7bd
000002f0: 21eb 90be 7c47 00be b108 7b3e 6fde cc3e
00000300: 3644 e1be 23af 59bd ef3d babe cd01 b6bd
00000310: d049 1dbf 8b80 0c3d 9ab7 cfbd 0d59 13bf
00000320: 4808 1d3e cec2 4a3e 90e7 b9be dba2 83bd
00000330: 36a0 18bf 534d dc3d ed09 bebe 9821 213e
00000340: 1b97 373e e519 62bc bc48 e6bd a46e c2be
00000350: 9808 3c3d 7422 803e 48a6 9dbe 35a0 963b
00000360: 295c 24bf f2d9 0fbe e1fe 623e 2dcc 95be
00000370: 0b21 09be a97d 003e 522f b8ba bdb9 2cbe
00000380: 65ed 02bf b6cf 613d def7 2ebf db76 4dbe
00000390: 505b dcbe faf9 293d f7c1 173e f1e1 9c3e
000003a0: 5cb2 a5be d1b3 3b3d 8bb4 a83e f610 09bf
000003b0: 2c6a 253e 32c8 c0be b90b 79be 4af4 6a3e
000003c0: bf57 b7bc 75fc 7c3e 1bb6 7fbe f967 c83d
000003d0: 8fea 853e 15d4 43bf 8f61 e5bc a0de fcbe
000003e0: 9bf2 3e3e 0ba1 75be 9772 76be 9e18 023d
000003f0: 58e6 af3e 51e8 563d 494d 09bf 0edd e4bd
-0.12567694 0.12604876 -0.39699626 -0.09529213 -0.3611096 -0.16710511 0.0015200834 0.32753125
-0.55530316 0.16715993 -0.29665792 0.16184548 -0.27389324 -0.14469013 -0.236826 -0.124819584
0.25084037 0.10965078 -0.8074139 -0.17048927 -0.07394284 0.19195367 -0.3289683 0.5608501
0.20551702 -0.08634032 0.21090476 -0.47756162 -0.10551367 -0.033013772 -0.1271597 0.010893925
-0.58125895 0.10438457 -0.38446772 -0.2907383 -0.18247712 0.4133631 0.4576237 0.15979874
0.26198357 -0.17613281 -0.005190677 -0.4659105 0.10706563 -0.6456156 0.2520897 0.2727013
-0.17730018 0.20466119 0.16031109 0.24156266 0.06428747 0.29452953 0.2514655 -0.43276578
0.048787124 -0.35288906 -0.6128382 0.064271696 0.20793982 0.2242806 -0.3349702 0.38146055
0.19141127 -0.021202944 0.22368594 -0.08318105 0.56466883 0.17596878 -0.43433014 -0.39980185
0.15675232 0.025721649 0.2401392 0.35538462 0.055233195 -0.6534455 -0.42339936 -0.34286678
-1.0450021 0.5054628 0.11815736 -0.16362864 0.10103418 -0.09172749 0.028154213 -0.1850262
0.09085349 0.17121227 0.44416106 -0.004959111 0.4235521 0.1916018 -0.54357964 -0.46389782
-0.07358182 -0.05063445 -0.24609932 -0.11307726 0.12478794 0.20933947 -0.032125708 0.114413835
-0.4478534 0.13545494 -0.6476089 -0.29366726 0.17976992 -0.27782744 -0.21554725 0.49736696
-0.24716145 0.13194169 0.18190306 -0.45410877 -0.63906246 -0.02736264 0.09019143 0.024100844
0.10216037 -0.04604633 -0.36370498 0.33191267 -0.3855656 -0.17939518 0.054383125 -0.51961756
0.0920981 -0.4546484 0.086623244 0.28529266 -0.24827792 0.5177544 0.37131852 -0.7547367
-0.15353976 -0.26528978 0.10129308 0.016362844 0.21011363 0.2100728 0.26950026 -0.026199263
-0.12054045 -0.12546913 -0.0025007373 0.093592726 -0.4455907 -0.6917144 -0.16711015 -0.3709794
-0.27690664 0.16548464 0.06493256 -0.18664013 0.058578208 -0.27702966 0.07381978 -0.44074285
-0.33847657 -0.097472236 -0.2350211 -0.71219265 0.043028004 0.006165622 -0.61835784 -0.0054804124
-0.24809463 -0.37930351 0.22961271 -0.2838744 0.14539933 -0.040466946 -0.6047618 0.042222947
-0.08088224 -0.31665352 0.1999609 -0.22429141 0.3484331 -0.03503688 0.39309332 0.010394493
0.3295438 0.28464913 -0.09410357 -0.08176997 -0.2830439 -0.12527269 0.24515034 0.40013453
-0.43997353 -0.05314554 -0.36375377 -0.08887062 -0.61440754 0.034302276 -0.10142441 -0.57557756
0.1533519 0.19800875 -0.3630948 -0.064275466 -0.5961946 0.10756936 -0.37116948 0.15735471
0.17928736 -0.013800119 -0.11244342 -0.37975037 0.045906633 0.25026286 -0.30790925 0.004596735
-0.64203125 -0.14047983 0.22167541 -0.29257336 -0.13391511 0.12547936 -0.0014052188 -0.16867729
-0.51143485 0.05512973 -0.68346965 -0.20064871 -0.43038416 0.04149816 0.14820085 0.3064113
-0.3236264 0.045825783 0.32950243 -0.53541505 0.16153783 -0.37652737 -0.24320878 0.22944751
-0.022380708 0.2470568 -0.24971811 0.09785456 0.26155517 -0.76495486 -0.028000621 -0.493886
0.18647234 -0.23987214 -0.2406715 0.031761758 0.34355426 0.052467648 -0.5363355 -0.11174975

weight f4 [200]
00000000: b7fb a13f 9f81 993f f4ed 893f dd50 603f
00000010: 4142 063f dc31 453f eb65 0f3f cd10 9f3f
00000020: 1e25 583f 1187 763f cfcd 843f 091c b83f
00000030: fc04 3d3f cbad 8c3f 0c31 3e3f 6311 8c3f
00000040: a273 233f 8522 893f 6b7a 933f f89e 883f
00000050: 6635 823f 7b5c 1d3f e12c a73f e175 8f3f
00000060: fbd0 943f 1004 633f 7dc0 553f 670f 793f
00000070: eaa7 3a3f 46c0 293f 19af 113f 7aa9 933f
00000080: ebf9 bb3f ab02 873f da35 1a3f 1bf2 243f
00000090: fcf0 0a3f 11d5 cf3f e86f 953f 46c6 673f
000000a0: 54a2 643f fb44 5c3f 0059 8c3f 7ff5 313f
000000b0: 1921 423f c78b 223f 1ff5 bf3f 593e 683f
000000c0: 3eff 923f 09dd 953f 0a9b b03f 6233 f23e
000000d0: d30f 7a3f ab16 773f 4877 8b3f 93d5 8a3f
000000e0: 2b6e db3f aa08 e03f ce20 743f 60d7 543f
000000f0: 06f1 c43f bb73 523f 2aab 823f 6142 793f
00000100: 9f38 913f a44c 933f 8b07 373f 5b43 303f
00000110: f73f 7c3f 7d81 8c3f 1d31 313f 9755 ac3f
00000120: c1ea 973f b109 743f 6d08 193f 92fb 8c3f
00000130: 5082 1e3f 496c 883f 1305 0e3f dff5 8a3f
00000140: d46f a73f 3d2b 233f d6f0 6e3f e8c9 623f
00000150: d40b 973f a9ca 803f 109c 8a3f 2758 9d3f
00000160: d4b7 b03f ad7b 843f ecb1 9b3f f5b2 8b3f
00000170: 3620 7e3f d437 273f b2cf f43e 059c 703f
00000180: 1dac 493f 3c38 473f 2708 023f 048d c23f
00000190: 69c3 943f 7651 a63f 7270 9b3f c047 a63f
000001a0: 3855 953f 2d89 6d3f 8237 ad3f 838c a83f
000001b0: 75db 003f 43a3 8d3f d67c 933f aa5c 673f
000001c0: 3fa1 8e3f 9734 693f 48d2 893f d69f 283f
000001d0: ad81 173f 5450 5a3f 35b0 a03f 7180 7f3f
000001e0: 7425 8b3f eb2c 883f 9ea0 2c3f 3a31 153f
000001f0: b409 633f 808c 273f fb98 be3e 3e6b 723f
00000200: 2e3f 513f 3af2 ac3f 4225 ad3f 9e04 d63f
00000210: 7c34 853f 0da8 423f 52b2 043f 6aed 163f
00000220: 3043 763f 95ca 843f 3447 863f 80bc 833f
00000230: fa40 a13f 6c54 933f d60d 733f 2961 4b3f
00000240: dfb5 193f d4c3 763f 4cca 963f c088 993f
00000250: 8e1b 7f3f 0e49 7f3f f4f2 993f c739 293f
00000260: 3868 943f 26ce 473f 121c 133f cf8c 453f
00000270: 8e92 233f b694 323f 568d a53f 4754 6c3f
00000280: 23c0 2d3f 8303 9d3e 2a8b ae3f 7e24 353f
00000290: cfd3 9d3e 7713 393f e22a 8e3f 2d2a b03f
000002a0: c21e 153f c4b9 033f 34c4 243f 27d9 a63f
000002b0: da8b 353f 7990 a03f b8be 383f 2979 5b3f
000002c0: 55b9 473f 6a89 5c3f eb1b 463f a591 8e3f
000002d0: c1ea 933f 18f7 5e3f 86c7 913f ee57 863f
000002e0: 9f9a 7b3f f4b5 3b3f 1051 323f 2de0 553f
000002f0: e5c3 7d3f 7bfd 853f 8a9a 8a3f 1d2b 3d3f
00000300: de0b 7f3f 2fab 613f 9d99 533f e795 8f3f
00000310: 182d 7c3f 7635 833f 57c9 653f da8c b03f
1.2654942 1.1992682 1.0775743 0.8762339 0.52444845 0.77029204 0.5601489 1.2427002
0.84431636 0.96299845 1.0375308 1.4383556 0.7383573 1.0990537 0.7429359 1.0942806
0.63848317 1.071366 1.1521734 1.0673513 1.0172546 0.6146924 1.3060571 1.1207849
1.1626276 0.88678074 0.8349684 0.9728913 0.72912467 0.6630901 0.569078 1.1536095
1.4685644 1.0547689 0.6023842 0.64431924 0.5427396 1.6236898 1.1674776 0.90536916
0.89310193 0.86042756 1.0964661 0.6951522 0.75831753 0.63494533 1.499668 0.90720135
1.1484144 1.170808 1.3797314 0.47304827 0.97680396 0.96518964 1.0895777 1.0846428
1.7142996 1.7502644 0.95362556 0.83141136 1.5386055 0.8220784 1.0208485 0.9736691
1.1345404 1.1507764 0.71495885 0.68852776 0.985351 1.0977017 0.69215566 1.346362
1.1868516 0.9532729 0.5977848 1.1014273 0.6191759 1.0658046 0.5547649 1.0856284
1.3081002 0.6373785 0.93336236 0.88589334 1.1800485 1.0061847 1.0828876 1.2292527
1.38061 1.0350243 1.2163672 1.0913988 0.992679 0.6531956 0.4781471 0.93988067
0.7877825 0.7782018 0.5079369 1.5199285 1.1622134 1.299361 1.214369 1.2990646
1.1666632 0.9278744 1.3532565 1.3167881 0.50334865 1.1065449 1.1522472 0.9037577
1.1142958 0.9109587 1.0767298 0.6586889 0.59182245 0.8527882 1.2553774 0.9980536
1.0870805 1.0638708 0.6743258 0.5827824 0.8868668 0.6544876 0.3722609 0.9469489
0.8173703 1.3511422 1.3526995 1.6720159 1.0406642 0.76037675 0.51834595 0.58956015
0.9619627 1.0374323 1.049048 1.0291901 1.2597954 1.1510139 0.94942987 0.7944513
0.6004314 0.9639256 1.1780486 1.1994858 0.9965142 0.9972085 1.2027268 0.66103786
1.1594305 0.7804893 0.57464707 0.7716798 0.638955 0.69758165 1.2933757 0.923161
0.678713 0.30666742 1.363622 0.7075881 0.3082566 0.72295326 1.1106837 1.3762871
0.5825006 0.5145533 0.6436188 1.303502 0.7091652 1.254409 0.72166014 0.8573175
0.7801717 0.8614718 0.7738635 1.1138197 1.1556016 0.87095785 1.1389015 1.0495584
0.9828281 0.73324513 0.6965494 0.8354519 0.99127036 1.0467981 1.0828412 0.7389391
0.9962748 0.8815183 0.8265627 1.1217622 0.9850631 1.025069 0.89760345 1.3792984

bias f4 [200]
00000000: 0cf9 89bd bbc9 b23e a02f c43e 9c84 8e3c
00000010: 26de 95be 1daf 553e 61a2 0a3e 8347 df3e
00000020: 85e2 973e 9b4c 843e c16e fa3e a763 c53e
00000030: f9b5 85bd 3ee1 0a3e 81b7 1a3e 86bd 473e
00000040: a411 8f3e d3f0 aabe db3c 9d3e b7c8 9b3e
00000050: 7abf f43e 0f72 673c d3f5 6cbd ea53 ef3e
00000060: 0c54 7c3e c29f fa3d 6d2b b8be db49 10bd
00000070: 96ff 22be bbb7 763e 87dd 5dbd f292 8e3d
00000080: 8429 a33e b573 c1be bad7 17be cc2e b8be
00000090: 5725 f13b b470 503f a045 993e d24c 213e
000000a0: 7565 eb3e 401b 083f 5010 0a3f 780e 82bd
000000b0: d124 9dbe d4c0 313e 3fe7 dc3e 2934 bf3e
000000c0: 4705 613e 3516 403e 5704 0a3f f34c 68be
000000d0: 95a3 413e 996f d83c 1eec ea3e bf9d be3e
000000e0: 8443 2d3f 4083 2c3f e7ab a23e 7252 c43d
000000f0: 1d33 3d3e ef8d e53e 53c4 183e 1a1a d83e
00000100: 183c 053f 657d f03e c48b d7be 6aa4 683e
00000110: af34 c63d 6fe2 0e3f be42 cb3e fdfa 103f
00000120: ac6f 803e 000a bfbd 3744 8fbe c2d9 ca3e
00000130: e728 8dbd 5ca6 d93e 5f5a aebd 2899 803e
00000140: 5d46 283f 4297 003f e908 01bd 7d5d a13e
00000150: a051 bb3e 3730 053f 8f99 d63e 684f cc3e
00000160: 3269 213f 2e46 a63e 041b 1f3e 81b0 a23e
00000170: 34f8 e2bd ed8d 06bf fa6a a13e ac11 a5bc
00000180: 836a bf3e dfac c93e a4dc 033e fd8b 203f
00000190: 3c3b efbd 4aa9 013f efd0 df3e 9a17 cd3e
000001a0: 122d 153f 807c f03d f6d3 c23e aa9f ba3e
000001b0: 4822 eb3e 2dbb 4cbd 9343 bc3e cb7a 653e
000001c0: 540c 253f 685f 983e 09b7 103f 7445 0b3f
000001d0: 4ab9 fb3e 0313 e83e 8ede b33e cdcb 643e
000001e0: dd36 cb3e 94dc 0d3f 933e 9dbe 4973 f83e
000001f0: 18ed 603e 25f6 323e a20e 9fbe b6d1 923e
00000200: 0c2c 693e 32d0 c43e cc1d 0a3f 6bee 1c3f
00000210: aad3 9c3d 3a4e 7d3d 5ed0 90be 0ff4 5c3e
00000220: 13d4 0b3f ba1f eebe 2a9b ce3e 92e8 053f
00000230: 584a ca3e 25ca d23e 3fd5 b13e 7248 e3bd
00000240: 1e69 c73d ae0d 9d3e c13a cb3e 800e c13e
00000250: 0546 fe3e 7acd de3e a9c4 073f 9f03 d3be
00000260: d262 ad3e 5f3f f33d 893b 42bd bac4 e7bd
00000270: 0c8f 54bd f10c 343d c5e8 ff3e 329e 3e3e
00000280: eb1d aa3e 6846 84be 4987 933e 013e 503d
00000290: f3f1 5dbe 9038 dcbe 2ece da3e 4786 a33e
000002a0: b36f 4dbd d4c4 7c3e 8b58 863e 87b0 323f
000002b0: 9cf1 32bd 17ae f53e 9abb 27be 0e12 853e
000002c0: aba0 d23d bf24 c03e e6b9 973c e6c4 163f
000002d0: 98fe f63e 0416 e2bc 0e1b f63e 89dc ad3d
000002e0: 0c11 863e f377 e73e d757 1c3e a9a5 d33d
000002f0: 9cbe b03d c523 1ebf a7c2 e33d 13c9 9a3e
00000300: e96e acbd a236 6fbc a397 6fbe e07c c83d
00000310: 3b40 863e 0f74 12be 4e4e 0a3f f5ef febc
-0.06736955 0.34919533 0.38317585 0.017397217 -0.29271048 0.20867582 0.13538505 0.43609247
0.29665008 0.25839695 0.48912624 0.3855259 -0.06528849 0.13562486 0.15109064 0.19505891
0.27943146 -0.3338686 0.30710492 0.3042657 0.47802335 0.014126315 -0.057851624 0.4674371
0.24641436 0.12237503 -0.3597063 -0.035226684 -0.15917811 0.24093525 -0.054166343 0.06961621
0.3186761 -0.3778359 -0.14828387 -0.35973203 0.0073591876 0.8142197 0.29935932 0.15751961
0.45975843 0.5316658 0.5393114 -0.06350416 -0.3069215 0.17358714 0.43145177 0.37344483
0.2197467 0.18758471 0.5391287 -0.22685604 0.18910058 0.026420401 0.45883268 0.37229726
0.67681146 0.6738777 0.31771776 0.09586038 0.1847653 0.4483485 0.14918642 0.42207414
0.5204482 0.46970668 -0.4209882 0.22718969 0.09678017 0.5581426 0.39699358 0.5663298
0.250852 -0.09328079 -0.2798173 0.3961926 -0.06892567 0.42509735 -0.08513331 0.2511685
0.65732366 0.502308 -0.031502638 0.31516638 0.36585712 0.52026695 0.4191403 0.39904332
0.6305114 0.32475418 0.1553765 0.31775287 -0.11082497 -0.5256031 0.3152693 -0.020150028
0.3738595 0.39389703 0.12877136 0.62713605 -0.1168122 0.5064894 0.4371409 0.4005707
0.58271897 0.117424965 0.38052338 0.3644994 0.45924592 -0.049983192 0.36770305 0.22410123
0.64471936 0.2976029 0.5652929 0.5440285 0.49164802 0.45327005 0.35130733 0.22343369
0.39690295 0.554147 -0.30711803 0.48525456 0.21965444 0.17476709 -0.3106585 0.28675622
0.22770709 0.3844009 0.53951716 0.61301297 0.07657559 0.06184218 -0.28283972 0.21577476
0.54620475 -0.4650858 0.40352756 0.52308 0.39509845 0.4116985 0.34733006 -0.11097802
0.097368464 0.306745 0.39693263 0.37706375 0.49662796 0.4351614 0.53034455 -0.412137
0.33864456 0.118773215 -0.04742006 -0.113168195 -0.051894233 0.043957654 0.49982277 0.18615034
0.3322595 -0.25834966 0.28814152 0.05084038 -0.21674328 -0.43011904 0.42735428 0.31938383
-0.050155353 0.24684459 0.26239428 0.6980061 -0.043687448 0.47984383 -0.16380158 0.25990337
0.10284551 0.37528035 0.01852126 0.58894193 0.48241115 -0.027598388 0.48067516 0.08489329
0.2618488 0.45208701 0.15267883 0.103343315 0.08630106 -0.6177333 0.11121111 0.30231532
-0.08419592 -0.014600428 -0.23397689 0.09789443 0.2622088 -0.14302085 0.54025733 -0.03112028

running_mean f4 [200]
00000000: 9f86 143e 4a84 003e 1e5e 813e a967 903e
00000010: d727 053f fbe5 ad3e c4b3 c83e 52df 0f3e
00000020: b028 8d3e 8d55 233e 393b ec3e ad14 0c3e
00000030: 52d6 d23e 902b 633e bf6d 833e 2082 443e
00000040: 22c3 c73e ce7d bb3e 20ed 303e aa74 183e
00000050: 4b27 073e 9dbe 9e3e 127b 243e 97b6 f03d
00000060: 513d 303e 4f20 aa3e a8cf 963e aca7 703e
00000070: 3c6d 8f3e 37bf 973e d29d 153f c457 923e
00000080: 8d83 943e 22f4 483e 5030 0e3f 68a1 ba3e
00000090: 2efc 173f 957a 103e 9c4f 4a3e 5fa7 0f3e
000000a0: 9766 423e 581f 753e 87db c63e b7ce 813e
000000b0: 7d6f 0a3f 2b0a b13e 5a3b 203e 8679 203e
000000c0: 14f6 593e 1e5b ae3e 02de 6d3e d87e 003f
000000d0: 0206 d23e 7185 ae3e 5e68 643e 3823 d03e
000000e0: 5bed 7f3e b397 633e 383f 363e 8e6b c73e
000000f0: 10e0 d23d 821a 623e 7ce5 9b3e 10b1 9b3e
00000100: 9fd3 cf3e 084b 133e 20f6 133e 88de 633e
00000110: 4076 203e dfee 043f 5d2d a33e 6c8c 913e
00000120: b7e3 be3e 4db3 0e3e 9207 133f a5e1 f33e
00000130: 83b2 e03e 8af8 6f3e 5a1a a23e 32e0 b73e
00000140: 1700 923e 8335 c73e 97b0 513e a262 a93e
00000150: 60c0 e23d 52fa 693e 9ef3 c43d 27ba 903e
00000160: 0910 403e 9fc7 df3e 3450 943e a73b 843e
00000170: 9c5e a03e d136 a13e 280f 843e c76f ce3e
00000180: 25a7 b03e 2c31 b43e fbe8 783e e2ee 133e
00000190: 9d21 303e f4fa a23d e25b 533e 2aaf 8e3e
000001a0: 5f3b 033e 7a20 ba3e 0ecd 1f3e bc05 833e
000001b0: 0837 d33e 2e21 bf3e 76e1 583e 270b 963e
000001c0: ed6b 7f3e 9cb0 4e3e 360e a03e 98ab e73e
000001d0: 1221 e53e 6fa2 313e 037c 763e 3553 013e
000001e0: 27dd ec3d 24b7 703e fcda 0c3f 797a ee3e
000001f0: a2b2 5b3e c122 f23e 54c6 173f dd2d 6c3e
00000200: fd6f c03e 5000 9d3e 7621 1e3e 71a2 f43d
00000210: e364 233e d4fe a03e 5e0f e53e 7cfc b53e
00000220: 6f85 923e 54f1 3d3e e330 513e b48e 923e
00000230: bea0 ce3d c73e 9c3e faca 993e 929d 673e
00000240: 7d0c 8e3e ce07 4e3e 56d2 673e 8413 8f3e
00000250: af87 be3e 5e83 4d3e 7a51 443e 32a8 aa3e
00000260: 3942 383e 7042 c33e 1555 f93e 2018 843e
00000270: 5ebc 803e f63a 9f3e 9a54 053e 3988 473e
00000280: 6422 823e 80e2 1a3f 79a9 393e 4204 e83e
00000290: c95a 0d3f eda6 6e3e c8b7 af3e f168 d03d
000002a0: a726 913e da37 cb3e a4b7 993e ce84 4e3e
000002b0: 309a 1f3e d4c0 7c3e 9d08 743e 3266 953e
000002c0: 0286 2e3e 4eb5 513e cdea 683e 4072 803e
000002d0: 261b 703e 0876 9e3e 3218 723e fb1d 383e
000002e0: 5e4e 4f3e 5b73 ac3e 037a 2f3e c558 f73e
000002f0: c05c a93e e8ff d53e 0db4 033e 2554 d43e
00000300: 3d98 bd3d ec96 c93e 2328 8c3e 148f 853e
00000310: 0b51 a13e 22c8 323e 9d58 e13e 0c86 003e
0.14504479 0.12550464 0.25267118 0.28204086 0.52013916 0.33964524 0.3919965 0.14050034
0.27570105 0.15950604 0.46138933 0.13679762 0.41179138 0.22184587 0.25669667 0.19190264
0.39016062 0.3661942 0.17277956 0.14888254 0.13198583 0.310048 0.16062573 0.11753576
0.1721089 0.33227775 0.29455304 0.23501462 0.28013027 0.29638073 0.5844394 0.28582585
0.29006615 0.1962438 0.5554247 0.36451268 0.5936917 0.14109261 0.19756931 0.14028691
0.18984447 0.23937738 0.3883936 0.25353023 0.5407637 0.3457807 0.15647641 0.15671358
0.21285278 0.34053892 0.2322922 0.5019355 0.4102021 0.34086183 0.22305438 0.4065187
0.24992888 0.22225837 0.17797554 0.38949245 0.10296643 0.22080424 0.3044852 0.30408525
0.40591142 0.14384091 0.14449358 0.22252858 0.15670109 0.5192699 0.31870547 0.28427446
0.37283108 0.13935585 0.57433426 0.4763309 0.43886194 0.23434654 0.3166073 0.35913235
0.28515694 0.38908014 0.2047752 0.33083063 0.11071849 0.22849396 0.09616779 0.28267023
0.18756117 0.43706986 0.2896744 0.2582676 0.3132218 0.31487134 0.25792813 0.40319654
0.3450252 0.35193765 0.24307625 0.14446595 0.17200322 0.07958022 0.2064052 0.27868015
0.12815617 0.36352903 0.15605566 0.25590312 0.41252923 0.37330002 0.21179757 0.29305384
0.24943514 0.20184559 0.31260842 0.45248103 0.44751793 0.1734712 0.24070744 0.12629397
0.11565619 0.23507363 0.55021644 0.46577814 0.21454862 0.4729214 0.59287 0.2306437
0.3758544 0.306643 0.15442452 0.11945046 0.15956454 0.31444418 0.44738287 0.35544193
0.28617427 0.1854909 0.20428805 0.286245 0.10089253 0.30516645 0.3003767 0.22618702
0.27743903 0.20120165 0.2263883 0.27944577 0.37212893 0.20069644 0.19171706 0.33331448
0.17994012 0.38136625 0.48697725 0.25799656 0.25143713 0.3109967 0.13020554 0.19485559
0.25416863 0.6050186 0.18131055 0.45315748 0.5521665 0.23305865 0.343199 0.10176266
0.28349802 0.3969105 0.3002292 0.20167848 0.15586162 0.24682933 0.2383141 0.2917953
0.17043307 0.20479318 0.2274582 0.25087166 0.23447856 0.30949426 0.23642042 0.17980187
0.20244738 0.3368176 0.17136388 0.48309913 0.33078575 0.41796803 0.12861653 0.41470447
0.09257553 0.39372957 0.27374372 0.26085722 0.31507143 0.17459157 0.4401292 0.12551135

running_var f4 [200]
00000000: 72f5 e43d bf41 bb3d 45f6 2c3e 515d 9e3e
00000010: bb6e 0d3f b013 8b3e bd64 9f3e eafd a03d
00000020: eeb0 403e bb7b c43d dbdb 703e 5912 eb3d
00000030: af53 923e 3ccc 003e 0d5b 163e 528e 053e
00000040: 4b10 9a3e 812f 823e 9bd8 093e 1904 c13d
00000050: a7b6 c03d d5a6 853e 50ae c73d c669 853d
00000060: 6295 e43d ab31 7d3e 52e4 9e3e 79e3 fb3d
00000070: eff7 573e d4c1 4f3e 7dd8 3d3f ab7f 313e
00000080: e765 333e c91d e33d cd87 463f 4134 6b3e
00000090: 624b 1c3f e10c b13d 21f3 093e 9f8d d33d
000000a0: e90e d83d 012c 293e 1c7b e13e 84ab 133e
000000b0: eda1 9b3e 52ce 613e 99cc af3d 7c07 093e
000000c0: a0bb 133e 6351 9d3e 7e5c 313e 2f71 da3e
000000d0: d732 cd3e a6ab b73e 7aff 3d3e 7f99 d03e
000000e0: d625 903e f142 053e 926b f53d 31ae 8a3e
000000f0: 17a5 823d 93c5 1c3e c12a 2b3e c37e 393e
00000100: 84d5 ec3e b57b a53d edb7 db3d 4508 243e
00000110: 1198 a03d 2a61 b63e 707a 663e 8a1a 413e
00000120: 94a1 963e 6df0 d03d 298b 9a3e 7409 c13e
00000130: cce4 df3e 6a0d 303e be3a 813e 621e 8d3e
00000140: 1ac6 653e 8dcc a83e 5707 da3d 01bf 9c3e
00000150: 322a 803d a1ec 523e bcf5 5a3d 93fd b93e
00000160: a81e 043e b598 ea3e 5ee8 253e 8cc7 3e3e
00000170: 1c1e 483e 2073 4f3e 8231 473e 2caa 6e3e
00000180: c780 973e f55f 9b3e eb49 283e 5a86 a33d
00000190: b88c c93d 1b69 423d 2284 123e d384 383e
000001a0: 4614 c33d a037 8b3e f143 243e 30c2 803e
000001b0: 2371 073f 2557 9a3e 65b7 1e3e 0c32 8d3e
000001c0: bf18 453e 888d 0a3e 2591 6b3e 981c 963e
000001d0: 6e60 bc3e 4338 e13d 71b2 7d3e d4dc cc3d
000001e0: 7dc0 a63d 8596 0c3e 1e50 d33e 3b36 953e
000001f0: b54e 573e eb21 0e3f 9235 513f 7e48 223e
00000200: 3d0a 0e3f bdb5 473e 102d d13d d3e4 963d
00000210: a6ba eb3d 945d 9f3e 54fb f63e c224 983e
00000220: 753d 403e b6e5 c33d a87b ce3d 30b6 453e
00000230: cf04 8a3d a8ad 803e 5d79 683e 2ba3 023e
00000240: 210b 6b3e 6fed e63d e344 6a3e 99f5 103e
00000250: 3bbf 813e 6c4e 1d3e d6ea e93d 1ef8 333e
00000260: 568a c83d f283 913e 521c bc3e 612a 803e
00000270: ec45 073e af74 8e3e 19e5 a23d 304c d83d
00000280: 4f39 1b3e d92d 2d3f b99d b23d 65d2 aa3e
00000290: db8e 1e3f 82b2 033e 1fef 4c3e 4f9f 803d
000002a0: 0c50 663e d775 833e fac5 523e 5c2d 093e
000002b0: 6d06 bf3d 6157 ec3d ab13 5e3e 8b24 3d3e
000002c0: 8e47 d73d 0572 4a3e 9fb6 673e d940 6e3e
000002d0: 3303 303e bca0 5b3e feb0 453e 5af1 d23d
000002e0: b468 f43d 958f 9e3e 9b7d f23d 76b6 9b3e
000002f0: 0645 c03e f37d 8b3e ff27 983d f8e5 7d3e
00000300: 7132 513d 401e 723e 3480 813e 6c2b 393e
00000310: 2a37 3b3e b041 103e b5bf 883e a3c8 8c3d
0.111796275 0.091433994 0.1689082 0.3093057 0.55247086 0.27163458 0.31131545 0.0786093
0.18817493 0.09593912 0.23521368 0.11478109 0.2857947 0.12577909 0.1468317 0.13042572
0.30090556 0.25426868 0.13461535 0.0942461 0.09409838 0.26103845 0.09750044 0.06514315
0.11161305 0.24725978 0.3103357 0.12299246 0.21090673 0.20288783 0.7415846 0.17333858
0.17519341 0.110896654 0.77550966 0.22969152 0.61052525 0.086450346 0.13471653 0.103297465
0.10549719 0.16520692 0.44039237 0.14420897 0.30396977 0.22051361 0.08583946 0.13381761
0.14427042 0.30726156 0.17320439 0.42664477 0.4007785 0.35873145 0.18554488 0.40742108
0.28153867 0.13013817 0.11983408 0.27086022 0.06379145 0.15309744 0.16715528 0.18114762
0.4625665 0.08080236 0.107284404 0.1601878 0.07841504 0.35621005 0.22507644 0.1885778
0.2942015 0.102021076 0.30184296 0.37702525 0.43729246 0.17192617 0.2524013 0.27562243
0.22438851 0.3296856 0.10645931 0.30614474 0.06258048 0.2059808 0.053457007 0.36326274
0.1290232 0.4581963 0.16201922 0.18630809 0.19542736 0.2025876 0.1945248 0.23307103
0.29590437 0.30346647 0.16434447 0.0798461 0.09841293 0.047463518 0.14308217 0.18019418
0.09525351 0.27190876 0.16041543 0.25148153 0.5290701 0.3014461 0.15499647 0.27577245
0.19247721 0.13530552 0.23004587 0.2931869 0.3679232 0.10997059 0.24775101 0.10003057
0.08142183 0.13729294 0.41272062 0.29142937 0.21026118 0.55520505 0.81722367 0.15847966
0.5548437 0.19502921 0.10213673 0.073678635 0.1151021 0.31126082 0.48238623 0.29715544
0.18773444 0.09565298 0.10082179 0.1930778 0.067391984 0.2513249 0.22702546 0.12757556
0.22953464 0.112757556 0.2287784 0.14156188 0.2534121 0.15361947 0.114217445 0.17575118
0.097920105 0.2842098 0.36740357 0.25032333 0.13210267 0.27823398 0.07953853 0.105614066
0.1515858 0.6764808 0.087214895 0.33363643 0.6193673 0.12861064 0.20013092 0.06280386
0.22491473 0.25675842 0.20583335 0.1339621 0.093273975 0.11540104 0.2168719 0.18470971
0.10511695 0.19770057 0.22628258 0.23266925 0.1718872 0.21448034 0.19305798 0.102999404
0.11934033 0.3096892 0.118403636 0.30412644 0.3755266 0.2724453 0.07429504 0.24794757
0.051073495 0.23644352 0.25293124 0.1808297 0.18282762 0.14087558 0.2670876 0.06874206

weight f4 [100, 200]
00000000: 43fb ed3c 4000 573d a041 97be b0ce 0d3e
00000010: ce20 1bbc fdf3 3d3e b333 9aba beb3 68bd
00000020: 01ee cebe a2b5 ddbe 7dcb b5bd c4d9 0fbc
00000030: 3b80 083e 393b 29be ea01 c1bd df3a 753e
00000040: b595 903e 0fc6 263a f57e b9bd 8104 1abe
00000050: dc19 be3c 3867 debd af74 d2be c6f1 3e3d
00000060: 8020 233e 0347 8e3c f3e5 c03d 56e0 1fbd
00000070: 8286 7c3d 8937 003e 0bc8 aa3d ad1a c1bd
00000080: f55e d83d 855f b7bd 82eb 13be 57fb 0bbe
00000090: 7d7e 703d 6db5 40bd 0b8d 9d3d e6d7 61bd
000000a0: bd0d debd eefd 1dbd c932 863b 54ad 9c3d
000000b0: d088 b2bc ff0e 973e ec87 b63c 8715 cd3c
000000c0: 951e bbbe fabb 1ebe c15c 16be 5e56 133e
000000d0: d6e0 373e d0da 013e 3dd2 813d 2600 bbbd
000000e0: f6dc 0fbc 2952 e7bc 28ba 57be be2d dcbd
000000f0: cbde e3ba 7280 abbd eefe 54be e21f c8bb
00000100: 5208 94bb d1ff d73d ecce e13d 35c4 983e
00000110: 66b3 343e e154 81be a25d 0b3e 5db5 33bd
00000120: 707f cfbe 7688 3c3e be7c 89bd 23a2 893e
00000130: e2d6 a1bd af33 72bd 4232 4d3e d78e 1a3e
00000140: 98f1 7b3d 8947 eebe 8866 4bbc e758 76bd
00000150: 2870 353d 6de6 10bf 93aa 183e 6c73 753d
00000160: da28 883d 903d a6be 18f2 6c3d c2b8 53bd
00000170: 5321 453e e01e 3c3e 88e1 eb3c 008a 283e
00000180: 197e 56bd bb66 c63d e374 38bd f1e7 48bf
00000190: b4fc 83be baef 25bf 228a 203c b0d8 303e
000001a0: 4e68 f8be c899 e93c ba73 87bd 5551 de3d
000001b0: f5a9 2b3d efda 413e 0ead 31be 42c8 b83d
000001c0: d564 c9bb ac9b 653d d5fd 8cbe b47b 87bd
000001d0: c7db 69be ce89 303e 7c04 51bc bfa5 263e
000001e0: 3172 1abf 1e1d e0ba 69fd 843e 835b 82be
000001f0: a846 cfbd df83 7ebc 59a1 3a3d efe9 e63d
00000200: 3579 0c3e 36b2 31bd dd01 c3be ffcb 4fbf
00000210: 0bce 713e 1923 debc daae 043d db71 e5bd
00000220: 5392 a0be 2306 7fbd d35c 16be 0de3 75be
00000230: 7314 173e e4e1 8bbc e495 463d 5504 103d
00000240: d8e5 703d d96f 213c f166 7a3d 91ca b73a
00000250: 0e4f c1be 110b 21bf 0f40 803d 550f 633e
00000260: 9104 edbe 9479 60bd 491a ccbd 3d10 453d
00000270: 3644 f2bd 6ac9 933d b336 fa3d e4b7 85be
00000280: 1588 7c3d 9c04 803e f744 36bd 3eac 7d3e
00000290: 74a2 de3d 095f 3dbd 7a99 92bd df8f 603e
000002a0: 7533 b93e 2284 84be db35 f3be 5b52 b8be
000002b0: 531d a23e 2248 743c 4426 663e 2c57 803e
000002c0: 64f9 783e 17e0 f7bd f4f6 4f3c 6242 bbbe
000002d0: b0a3 f3ba 83d6 833e 5fbe 32be 5ff9 09bf
000002e0: 6769 b83d bb7f 81bd 5a48 ca3b 7051 953e
000002f0: 80a5 cb3b 2226 36bc 45e4 59be e4b1 ee3c
00000300: d0b8 debd b6a3 873d 8f1f fc3d e3d5 00be
00000310: 687f 9b3e ca76 ce3e 7b3b 88bd 6678 123e
00000320: 0bbc 213e e136 b8be 5a4b 85bc 48fd 8d3e
00000330: ab90 8e3c 4250 853d 188a c2bd 50ef 583e
00000340: ce33 48be 1d3a 713e 13c1 2a3d fa19 18bf
00000350: 3880 823e 5337 723e 0d3b 623d d290 79be
00000360: e47a 6abd e6f6 523e 74a9 12bf 69cf 6a3e
00000370: ad93 42be 7655 aabe 5401 cf3e e0dc bc3e
00000380: b076 ec3d 36c5 1f3e edbd ee3d 4c16 d5bd
00000390: 0135 87bd 6934 823e 2e91 173d 977f 553e
000003a0: ce67 ebbd 8db2 c43e 0f81 613e 78cc 933e
000003b0: 7f4f 43be 4af0 a4be 7037 40bf b6b5 363e
000003c0: d3f4 a3bd e171 08be b191 aabe 57dd 823d
000003d0: b8df a73a 0c6d 4ebd db55 003e dafb 873d
000003e0: 79f3 a13e 65b2 7b3e 9108 e73d 3504 433e
000003f0: 5d61 123e 7994 03be a901 8bbd 815e 9dbe
0.029050475 0.052490473 -0.29542255 0.13848376 -0.0094682705 0.18550105 -0.0011764675 -0.05681204
-0.40415958 -0.43302637 -0.08876703 -0.008779947 0.13330166 -0.16526498 -0.09424193 0.23948239
0.28239217 0.00063619105 -0.09057418 -0.1504078 0.02320569 -0.10859531 -0.41104648 0.046617292
0.15930367 0.017367845 0.09418859 -0.039032303 0.061651714 0.12521185 0.083389364 -0.09428916
0.105649866 -0.08953766 -0.14445308 -0.13670097 0.05871438 -0.04704802 0.076929174 -0.055137537
-0.10842464 -0.038572244 0.0040954095 0.07650247 -0.021793753 0.2950363 0.02228161 0.02503468
-0.3654677 -0.15501395 -0.1468382 0.14388415 0.17956862 0.12681127 0.06338928 -0.09130888
-0.008780709 -0.02823742 -0.21067107 -0.10750912 -0.0017385123 -0.083741084 -0.20800373 -0.0061073164
-0.0045175934 0.1054684 0.11025795 0.29837194 0.1764656 -0.2526007 0.13609937 -0.043874133
-0.40526915 0.1841143 -0.06713246 0.26881513 -0.07902314 -0.05913132 0.20038703 0.15093552
0.0615097 -0.46538952 -0.012414582 -0.060143378 0.044296414 -0.566016 0.14908819 0.059924528
0.06648417 -0.32468843 0.057848066 -0.05168987 0.19250993 0.18371153 0.028794065 0.16458893
-0.05236635 0.09687563 -0.045033347 -0.78478914 -0.25778735 -0.6481892 0.009798558 0.1727016
-0.48517078 0.028515711 -0.0661387 0.108553566 0.04191013 0.18931173 -0.17351171 0.09022571
-0.0061460533 0.056056663 -0.27537408 -0.066153914 -0.22837745 0.17240068 -0.012757417 0.16274165
-0.6033049 -0.0017098521 0.25974587 -0.25460443 -0.101208985 -0.01553437 0.04556403 0.11275088
0.13718112 -0.043382846 -0.3808736 -0.8117065 0.23613755 -0.027116345 0.032393314 -0.11203357
-0.31361637 -0.06226171 -0.14683847 -0.24012394 0.14753895 -0.017075486 0.04848279 0.03516038
0.058812946 0.009853327 0.06113333 0.0014022161 -0.37755626 -0.6290751 0.06262218 0.22173817
-0.46292546 -0.054803446 -0.09965951 0.04811119 -0.118294165 0.07216151 0.12217464 -0.2611686
0.061653215 0.25003517 -0.044499364 0.24772736 0.10870829 -0.04623321 -0.071581796 0.21929882
0.3617207 -0.2588206 -0.47502026 -0.36000332 0.31662998 0.014909776 0.22475535 0.25066507
0.24313885 -0.121032886 0.012693156 -0.36574084 -0.0018588211 0.25749597 -0.17455433 -0.53896135
0.09004479 -0.06323191 0.0061731758 0.29163694 0.0062147975 -0.01111749 -0.21278484 0.02913756
-0.10875094 0.06623022 0.12310707 -0.12581591 0.3037064 0.40325004 -0.0665197 0.14303741
0.15794389 -0.3597937 -0.016271282 0.277323 0.017402967 0.065094486 -0.094989955 0.2118504
-0.19551012 0.23557325 0.041688036 -0.5941464 0.25488448 0.23653917 0.055232096 -0.24371651
-0.057246104 0.20601997 -0.57289815 0.22930683 -0.19001646 -0.33268327 0.404307 0.36887264
0.11546075 0.15602574 0.11657319 -0.104046434 -0.066019066 0.2543061 0.03700369 0.20849453
-0.114944085 0.38417473 0.22021888 0.28866935 -0.19073294 -0.32214576 -0.7508459 0.17842755
-0.08005681 -0.13324691 -0.3331428 0.063898735 0.0012807762 -0.050396964 0.12532751 0.06639834
0.31631067 0.24579771 0.11280931 0.19044574 0.14294954 -0.12849607 -0.06787426 -0.30736163

weight f4 [100]
00000000: 67c0 f63e c35c fa3e 90e5 eb3e 63de 013f
00000010: ae49 e93e 2d3b 0e3f 64c8 fe3e da87 903e
00000020: 86db 053f 7add a33e 0ae2 c73e 5cb5 ac3e
00000030: 05e0 ba3e 4d5b 273f 2e31 293a 68ce f03e
00000040: 4ce6 d63e 7b3c a7b9 d658 be3e 25d7 4d3e
00000050: 5308 d6ba 3d42 ba3e 8dd0 4c3e ba6b da3e
00000060: 93c2 a13e de06 2d3f 9fd5 633b 7636 ee3e
00000070: bba7 193f d1ce ea3e 37d6 643e c451 d53e
00000080: abaa 9b3e e4d0 963e 8e14 873e 5153 db3e
00000090: e624 0a3f c34f e63e 1186 bb3e b935 ff3e
000000a0: 230f be3e 4423 d83e b154 623e ed51 ed3e
000000b0: 8d71 cd3e e175 253e 1faf 26ba 2c80 043f
000000c0: 040a ba3e 4f05 eb3e a61b 0bb7 0d24 283f
000000d0: 76e0 8f3c 7a43 953e a21b eeba d3c1 e53e
000000e0: 40cb ef3e 5649 993e cb63 c33e bc79 a23e
000000f0: 6ba1 103a b628 1c3b 6df7 20bc 910e cf3e
00000100: 2b81 8d3e dfe8 2b3e 68a2 cf3e 04ab a23e
00000110: a618 893e 047a 863e 5f24 1b3f 399d a43e
00000120: 67a0 a63e 9bc0 b93e 29ff a03e be6c 0cbd
00000130: 7425 7a3e d100 ce3d 5ead 883e 11d7 c73e
00000140: 3828 6a3e 0fd3 073f 6285 033f 46c7 9d3e
00000150: ac45 c83e ed8e cb3e fe72 c73e 3eff 5b3d
00000160: b21a 1a3f 2f3c 353e 9d4a ee3e 5416 c93e
00000170: fa6a 993e 3094 c23e 6adc dc3e 2d6f f23e
00000180: 0d79 183f 0259 073f 397b c03e da7b 223b
0.48193666 0.48898897 0.4607358 0.5072996 0.45564026 0.55559045 0.4976226 0.28228647
0.5228809 0.3200491 0.39039642 0.33732116 0.36499038 0.6537369 0.0006454167 0.47032475
0.41972578 -0.00031897784 0.3717715 0.20101602 -0.0016329385 0.3637866 0.20001431 0.42660314
0.3159376 0.67588603 0.003476478 0.46525925 0.6002156 0.45860913 0.22347341 0.41663945
0.30403647 0.29456246 0.2638287 0.42837003 0.5396255 0.44982728 0.36625722 0.49845675
0.37120923 0.42214406 0.2210262 0.46351567 0.40125695 0.16158248 -0.00063584925 0.51758075
0.36335766 0.45902488 -8.291483e-06 0.6568001 0.017563086 0.29153043 -0.0018166194 0.4487444
0.46834755 0.29938763 0.38162073 0.317335 0.0005517217 0.0023827977 -0.009824616 0.404408
0.2763761 0.16788052 0.40553594 0.317711 0.26776618 0.26264966 0.6060237 0.321512
0.32544252 0.3627976 0.31444672 -0.034283392 0.2442835 0.100587495 0.2669477 0.3903127
0.22866905 0.53056425 0.513754 0.30816096 0.39115655 0.3975748 0.3895492 0.053710215
0.60196984 0.1769874 0.465413 0.39274848 0.2996443 0.38003683 0.43136913 0.47350445
0.5955971 0.5287019 0.3759401 0.002479306

bias f4 [100]
00000000: 43d0 e03c 6cbd 843c a4b1 d83c e314 a4bc
00000010: b459 cf3a 3750 1fbc 0611 133d 4c6e 153d
00000020: 14bf 873c 0071 adbb 9a12 f03c f079 253c
00000030: 9570 543c 84a4 48bd f649 043b 77ae 66bb
00000040: c7e4 6fbd 8383 4139 4a29 8dbc a8bf 0cbc
00000050: 0c7d 84ba 2c91 1e3b 61c3 a2bb e9e8 d2bc
00000060: f0c2 05bd 133b 14bd e119 8aba 0eb0 3a3c
00000070: c84d 91ba dc39 c3bc f3e2 febc 1d5a a5bc
00000080: 06f8 5eba 7fc9 d63c 2ecc e0bc 483f b6bc
00000090: d40f a13c 70f9 173d faaf d4bc 8a07 ebbc
000000a0: 8e01 8b3c a113 89bb 63f1 e63b 980b 823b
000000b0: 7922 383d 66da 8dbc 877e 63b9 89b3 8b3a
000000c0: 7f24 5e3d aad4 6c3b 4cf2 d6b8 2138 d4bb
000000d0: 3e0e 663b 653c a6bc 7805 74ba ad76 483d
000000e0: c5f9 3d3d 27c4 c43c d075 ddbb bb7b a5bc
000000f0: aca9 1839 61c2 91ba 2cf9 7fbb baaa 8f3c
00000100: 3efb 80bc 5654 6c3c 7997 e7bb a160 37bc
00000110: 912e 123d e925 533c 9e70 dabc 5c84 f13c
00000120: f3e8 febc c023 a4bb 29c2 2abc 6fff b6ba
00000130: 6515 38bc 827d bf3b 3d07 823c b656 f0bc
00000140: 8d8f 1cbc 1d36 81bb 4e07 8a3b 756f 1d3c
00000150: 2428 edbb 3630 363d f5fd 59bc 97b8 063c
00000160: b602 42bc 57df 0b3b dffe 173d 3c50 c93c
00000170: 57c9 09bb e5ce 283d 5ce0 153c e0c0 373d
00000180: 2d62 59bd 2d64 88bd 569a 313d dfca 6e3a
0.027443057 0.016203605 0.026451893 -0.02002949 0.001581958 -0.009723715 0.035904907 0.03648214
0.016570605 -0.0052930117 0.029305745 0.010099873 0.012966295 -0.04898502 0.0020185686 -0.0035199204
-0.05856779 0.00018454906 -0.017231602 -0.008590616 -0.0010108068 0.0024195416 -0.0049671386 -0.025745826
-0.03265661 -0.03618915 -0.0010536277 0.011394514 -0.0011085803 -0.0238313 -0.031114077 -0.02018457
-0.00085055863 0.026219128 -0.02744111 -0.022246972 0.019660868 0.037103117 -0.025962818 -0.028690118
0.016968515 -0.004183248 0.0070478185 0.0039686672 0.04495475 -0.017316055 -0.00021695542 0.0010658364
0.054234024 0.00361375 -0.000102494465 -0.0064764176 0.0035103704 -0.02029247 -0.0009308676 0.048941303
0.046380777 0.024019314 -0.006758429 -0.0202006 0.00014559057 -0.0011120551 -0.003905843 0.017537463
-0.015744802 0.014424404 -0.0070676175 -0.011192472 0.03568894 0.012887456 -0.026665028 0.02948206
-0.031116938 -0.0050091445 -0.010422268 -0.0013961623 -0.01123557 0.005843819 0.015872592 -0.029338222
-0.00955571 -0.0039432184 0.0042122966 0.009609093 -0.007237451 0.04447957 -0.013305177 0.008222721
-0.011841467 0.0021342838 0.0371083 0.024574392 -0.002102455 0.041212935 0.00914773 0.044861674
-0.053072143 -0.06659732 0.043360077 0.00091092096

running_mean f4 [100]
00000000: 1e5e 0c3f 2d47 973e 81ff 933f 1e85 363e
00000010: 98df ae3f 5be1 143f 0040 bb3e 4df7 ef3f
00000020: 3a8f dd3e ec8b 9c3f 6033 3a40 2454 983d
00000030: 83a4 ad3f 9553 9d3f 88d3 e33f cb85 e23f
00000040: 3a81 af3f d578 f03f 86a0 953f 5efd b13f
00000050: 3e38 0740 9434 0240 169e b43e 9b7d 2d3f
00000060: e334 4540 3644 0c3f b7b0 953e df8a 563d
00000070: a773 9c3f ad05 a23f 46c0 2740 97e5 ee3f
00000080: f730 3740 c0d9 4a40 2fca 1540 bc7e 4b3f
00000090: 27b6 793f 1d12 993f aab6 dc3f d246 063e
000000a0: e239 fa3f ac92 0640 9983 463f 311e 453e
000000b0: 7a83 823f 55f8 8c3f 0b90 b33f d393 0b3f
000000c0: 1d0b 793f bc55 a03f 2880 ce3f f866 433f
000000d0: 3666 3240 8a80 5c3e a955 b83f ab72 6e3f
000000e0: dadb fe3f dc57 2840 be40 233e 2520 ab3f
000000f0: 5694 dd3f 0392 073f dbf2 913f 7d12 0d40
00000100: 96d4 0a40 1151 d43f 209a 9a3f e8a9 c23f
00000110: 7337 063f 6338 cf3e d74c c53f 8bf1 003f
00000120: 5a0e d63d dc93 c83d 722b 453f d2d0 1c3f
00000130: 785c 5d3f 3ce7 0b40 46c7 0a40 a417 be3e
00000140: 3235 ec3f 57c7 4b3f 36c3 933f 4776 d43f
00000150: 8d74 903e 5874 443f fc4f 983f 7e55 a13f
00000160: f8ae 583f fc12 fb3f 9598 ab3f 4afc d53e
00000170: 9454 2640 06f7 613f 4fe2 3040 5869 f63f
00000180: 0da9 9b3e 48cb 663e af41 0e40 2db4 2040
0.5483111 0.2954649 1.1562349 0.17824218 1.3661985 0.58156365 0.36572266 1.8747345
0.43273336 1.2230201 2.9093857 0.074379236 1.356583 1.2291132 1.7798929 1.769708
1.3711312 1.8786875 1.1689613 1.3905447 2.1128078 2.034459 0.3527686 0.67769784
3.081353 0.5479158 0.29236385 0.05237853 1.2222794 1.2657982 2.6211104 1.8663815
2.8623636 3.1695404 2.3404653 0.79490256 0.9754357 1.1958653 1.7243245 0.13112953
1.9548914 2.1027021 0.7754455 0.19249798 1.0196373 1.1013285 1.4028333 0.54522437
0.9728258 1.2526164 1.613286 0.7632899 2.7874885 0.21533409 1.4401141 0.9314372
1.9910843 2.6303625 0.15942666 1.3369185 1.7310894 0.5295717 1.1402239 2.2042534
2.1692252 1.658724 1.2078285 1.5208101 0.5242836 0.40472707 1.5414075 0.50368565
0.10451956 0.09793827 0.7701942 0.61256135 0.8646922 2.1859884 2.1684127 0.3712741
1.8453734 0.79601043 1.1543949 1.6598595 0.2821392 0.76740026 1.1899409 1.2604215
0.8464198 1.9615169 1.3405939 0.41794044 2.5989122 0.8826755 2.7638128 1.9250898
0.30402413 0.22538483 2.222759 2.510997

running_var f4 [100]
00000000: 4fe3 1a40 29cc 9b3f 7305 9840 cb8d 093f
00000010: 6185 1a41 3972 d43f ea92 8c3f 1b9a 1b41
00000020: 5f57 bc3f 6a29 a540 5c4a 7e41 5939 3d3e
00000030: 0d89 c740 ae35 ae40 daf3 e640 4730 fa40
00000040: 425c fb40 c47a 3741 aced c140 66da 4141
00000050: 80d7 1341 a4d4 c340 468d 9a3f 5766 6640
00000060: e60b b841 81cb aa3f 8966 273f d4eb e73d
00000070: 9cd3 9a40 47b7 d340 239a 2341 8197 d840
00000080: cc93 8441 1d05 ac41 ee94 0c41 5c6c 2040
00000090: 6b7b 5640 ab42 8440 dc44 4d41 33a8 b93e
000000a0: f78e 3441 d03f 1441 e54f 5140 cd97 0f3f
000000b0: e87f 8240 06fa e540 f63c ba40 ebdd 0940
000000c0: 1651 2b40 3aeb af40 9988 be40 a5da 2040
000000d0: 6139 9041 3f97 e53e db79 b240 ceb7 7840
000000e0: bf54 da40 a932 2741 d433 d03e 6527 c840
000000f0: 6d80 0d41 c17d c93f ddfc 8b40 822d 8b41
00000100: ccc6 2441 3e61 d340 4f1f f840 0054 9140
00000110: 6060 b03f 438e 7e3f 5f8c 2a41 a879 0040
00000120: 4425 6f3e 8b38 e73e 0ed8 6d40 38b1 0c40
00000130: a767 4340 bc23 2c41 7b77 9941 5b92 903f
00000140: 88b0 1b41 4ef1 2940 1553 ae40 6d55 d540
00000150: 53ac 633f 6214 7440 fd76 d140 e3d8 c640
00000160: d98f 7440 6ce6 4541 fcce 0241 c737 663f
00000170: 51cb 9941 a5dc 4040 2f8d 6541 d6aa 0341
00000180: ed58 633f d931 0f3f 0852 c040 97ca 2f41
2.4201238 1.217168 4.750665 0.53731984 9.657563 1.6597358 1.0982335 9.725123
1.4714164 5.1613054 15.893154 0.18478908 6.23548 5.4440527 7.217267 7.818393
7.855012 11.467472 6.0602627 12.11582 9.240112 6.119707 1.2074363 3.5999963
23.00581 1.3343354 0.6539083 0.113242775 4.838331 6.6161227 10.225131 6.768494
16.572166 21.502497 8.78636 2.5066137 3.3512828 4.133138 12.829311 0.36261138
11.284904 9.265579 3.2705014 0.56091005 4.0781136 7.1867704 5.8199415 2.1541698
2.676824 5.497464 5.9541745 2.513345 18.028017 0.44841954 5.577375 3.8862185
6.822845 10.449868 0.40664542 6.254809 8.843854 1.5741502 4.374617 17.39722
10.298534 6.6056204 7.753822 4.541504 1.3779411 0.99435824 10.65927 2.0074253
0.2335406 0.45160326 3.716312 2.1983166 3.0532014 10.758724 19.18334 1.1294664
9.730598 2.655353 5.447642 6.666678 0.8893482 3.813744 6.545775 6.2139754
3.8212798 12.368755 8.175533 0.8992886 19.224276 3.013467 14.346969 8.229208
0.88807565 0.55935436 6.0100136 10.98696

weight f4 [1, 100]
00000000: 0b9a 443d c463 dcbd 11bc 78bd 172c b33d
00000010: 29e1 2a3d e5d6 d73d 562f c53d 1bc8 69bd
00000020: 49c3 b53d 5003 7c3d 6052 61bd 9680 ff3d
00000030: d64e d53d ed4c 813d 12d4 753a ad81 98bd
00000040: 0c31 373d 2766 9536 8e44 e93d caf5 0e3d
00000050: 7cca dab9 e17f 8cbd 254f bd3d 2b1f 493d
00000060: 8e66 7d3d 90ba c13d 75e7 fab9 4df3 c93d
00000070: 9794 c13d 7266 71bd 7ebc 7dbd 8c8f f9bd
00000080: ad35 15bd 1bf0 83bd 1d32 a3bd e9b8 ab3d
00000090: 5efe a43d 0dc6 8cbd fac4 bb3c 0070 bf3d
000000a0: 5220 8bbd ce71 cabd 7f3a 663d f8cb 9cbd
000000b0: 61f9 a7bd 7eeb 883d d292 2439 4e13 873d
000000c0: dfeb 93bd 4e53 96bd b653 01b8 99ee 803d
000000d0: 62f9 d6bb 9350 e23d b5a7 d939 c6a5 903d
000000e0: 9961 62bd 3e3a 7abd 051f be3d de58 df3d
000000f0: 0da6 1a39 e125 4b3a 7314 ae3b c93d 4ebd
00000100: bfbe 843d b23f 4cbd e4a2 cfbd fcfe dabd
00000110: 9c2f d5bd 251f dabd 842d 6b3d 0a24 b33d
00000120: 2f5f e9bd ba2a 4ebd b712 be3d edd5 aebc
00000130: 5498 c6bd 15fb aebc 22da 9c3d 8248 b33d
00000140: 10ab a3bd 54f8 843d 73b6 9c3d fe88 79bd
00000150: 04fc 94bd be76 46bd a79b a73d e467 df3c
00000160: 8abb 8c3d 4758 70bd 1af4 8a3d 4e07 b5bd
00000170: d23d a33c a897 d23d d67a 86bd 0b68 c4bd
00000180: bbce 8f3d 57b1 c03d 1e71 eabd 0595 8837
0.04799847 -0.10761216 -0.06072623 0.08748644 0.041718636 0.10539035 0.09628169 -0.0570756
0.08875138 0.061526597 -0.0550102 0.12475698 0.104154274 0.063135006 0.0009377609 -0.07446609
0.04472451 4.452438e-06 0.11390029 0.03490237 -0.00041731063 -0.068603285 0.09243611 0.04910199
0.061865382 0.09459412 -0.00047856165 0.09860859 0.094521694 -0.05893559 -0.06194734 -0.121855825
-0.036428142 -0.06442281 -0.07968543 0.08384878 0.08056329 -0.06873713 0.022921074 0.09347534
-0.06793274 -0.09884988 0.05620813 -0.076560915 -0.08201862 0.066855416 0.00015694954 0.06595479
-0.07222723 -0.07340108 -3.083396e-05 0.06295509 -0.0065604905 0.110505246 0.00041514417 0.07062869
-0.055268858 -0.0610907 0.0928326 0.10905622 0.00014748443 0.000774948 0.0053124963 -0.05035189
0.064816944 -0.049865432 -0.10138491 -0.10693166 -0.104094714 -0.106504716 0.057416454 0.08747108
-0.11395108 -0.050333716 0.09280913 -0.021342242 -0.09697023 -0.02135996 0.07658793 0.08754064
-0.07991612 0.06492677 0.07651987 -0.06092166 -0.07274631 -0.048453085 0.08183985 0.027271219
0.06871708 -0.058677938 0.0678484 -0.08839284 0.01992694 0.102828324 -0.06566398 -0.09590157
0.070218526 0.09408825 -0.11447357 1.6281856e-05
